imitation/bc_policy.pt (torch, 81234 bytes, 11 tensors)

mlp_extractor.policy_net.0.weight f4 [32, 220]
000000 da 0b d5 bc fb b3 45 bd 54 c1 f7 bd 29 96 5c bc
       -0.026006628 -0.048267346 -0.12097421 -0.013463535
000010 56 fc e9 bc 38 2e 86 40 6e 7b 87 40 07 f3 5c 3d
       -0.028562706 4.193142 4.233817 0.053942706
000020 4b 5f af 3c 5c b5 c8 bd 27 80 82 3d 31 17 b7 bd
       0.021407744 -0.098002166 0.06372099 -0.0893997
000030 22 c1 37 be 08 41 15 3e db 9b 00 be a8 ca 0f 3e
       -0.17944768 0.14575589 -0.12559454 0.14042151
000040 f8 5a 80 3d f1 9d 33 be 79 f9 07 3e 3b 1a 37 be
       0.06267351 -0.17540719 0.1327876 -0.178811
000050 cf 25 61 3e b5 da 67 bd 60 b4 a9 bf 58 39 3b bd
       0.21987079 -0.05660506 -1.3258171 -0.045708984
000060 0c 43 f4 bd 00 b9 28 3d 0d 1c b6 3d b8 4b 83 40
       -0.11926851 0.041192055 0.08892069 4.102993
000070 3d 87 4a 3c dc 04 56 3e 83 78 76 bc a0 68 13 bf
       0.012361345 0.20900291 -0.015043381 -0.5758152
000080 35 5e cd bf f5 a0 3e bd 3c d5 84 bc 49 22 18 3d
       -1.6044375 -0.04654022 -0.01621496 0.037142072
000090 29 e5 b0 3d 29 f1 28 3f 7b 02 88 c0 9c 0a 34 3d
       0.08637459 0.6599298 -4.250303 0.04395543
0000a0 08 a0 58 c0 76 b2 07 40 c7 0f c9 be 4b 93 5a bd
       -3.3847675 2.1202674 -0.3926985 -0.053363126
0000b0 df 22 28 bd 31 50 19 be 50 aa 1a be 63 aa 0f 3f
       -0.04104888 -0.14971997 -0.15104032 0.56119365
0000c0 20 65 9a be fe cf 43 3f bc 06 2f bf 23 64 75 40
       -0.30155277 0.76489246 -0.6836965 3.8342369
0000d0 81 e4 42 c0 83 b8 3f c0 24 1a 90 c0 6b e4 81 3f
       -3.0451968 -2.9956367 -4.503191 1.0147833
0000e0 6e a1 90 3d a9 18 d5 3c f8 dc c0 be 7c 36 1d 40
       0.0706204 0.026012735 -0.37668586 2.4564505
0000f0 18 3f b3 3f bc f7 95 bf 6e 56 15 c0 ea 80 ac 3d
       1.400363 -1.1716228 -2.3334002 0.08423026
000100 43 a4 2a 3e d0 05 94 be 9e 96 a5 c0 f6 6d 6a 3d
       0.16664223 -0.28910685 -5.174636 0.057233773
000110 0e 16 ad bf e0 db 0e c0 33 98 18 40 f5 9b 95 3f
       -1.3522356 -2.23217 2.3842895 1.1688219
000120 b8 f6 65 bf 4d 1b fc be 9b 63 82 40 d7 a8 5e 3e
       -0.8982959 -0.4923958 4.074659 0.21744095
000130 be b3 c3 3e 62 33 dc bf e6 e3 b2 be f1 8c 0d 3e
       0.3822307 -1.7203181 -0.34939498 0.13823296
000140 c3 b5 a9 3f 35 e3 91 3d 06 72 83 3e a4 9f 07 3f
       1.3258594 0.071234144 0.2567293 0.5297797
000150 92 f9 0a 40 69 24 e0 bf 28 63 54 3f 5e e6 ba be
       2.1714826 -1.7511111 0.829638 -0.3650388
000160 27 2c c1 bf 01 18 c5 bf 38 fd 45 40 98 cc df be
       -1.5091599 -1.539795 3.0935802 -0.4371078
000170 d8 54 4a bf 09 28 30 40 58 a9 61 40 46 6e 5e c0
       -0.7903571 2.7524436 3.525961 -3.4754806
000180 a7 c7 c9 bf 74 6e 3f c0 dd e2 0f 3f a9 73 ac 3f
       -1.5764054 -2.9911165 0.5620554 1.3472797
000190 fd 43 c8 3f 5b 4f bc bf ad 80 23 bf 6c dc 59 bf
       1.5645748 -1.4711717 -0.6386822 -0.8510196
0001a0 d5 28 20 40 7f 0f ab bf d8 04 30 c0 79 de b3 3f
       2.5024922 -1.3364104 -2.7502956 1.4052268
0001b0 35 2f 1a c0 b4 71 67 be de 70 44 40 ee b8 11 c0
       -2.4091313 -0.22601968 3.0693889 -2.2769122
0001c0 7b 40 a9 bf 26 d4 be 3f 8b 1f 39 40 6a 03 f8 bf
       -1.3222803 1.4908493 2.8925502 -1.9376042
0001d0 fa 53 5b bf 29 83 07 bf fc e9 17 3f 1f f4 eb be
       -0.85675013 -0.5293451 0.59341407 -0.46084687
0001e0 68 0e d4 3f 97 0c f4 3f 1b 7f bc bf 73 8c 13 3e
       1.6566896 1.9066342 -1.472629 0.14409046
0001f0 b8 6a 13 40 75 fa b6 bf 45 ab 00 c0 d4 c9 86 be
       2.3033886 -1.4295183 -2.0104535 -0.26325858
000200 0a e6 f3 bf 23 d9 9d 3c f8 9c e5 3e 8c 63 48 3e
       -1.9054577 0.019268578 0.4484632 0.19569224
000210 6f 02 86 bf 8d f1 0e be 89 f6 3e 3f 5b 70 40 3f
       -1.0469493 -0.13959332 0.7459493 0.7517144
000220 42 4a 40 bf 3b 87 7e 3f 7c e2 67 bf d2 a7 43 be
       -0.7511331 0.99425095 -0.9057996 -0.19106987
000230 04 e9 6b 3f 9a d9 0a 3d 1a 40 c5 be 40 f1 06 3f
       0.9215243 0.033898927 -0.38525468 0.5271187
000240 35 09 ac 3f 5f 3e 39 bd 08 15 f2 bf ac cb 4b 3e
       1.344031 -0.045225497 -1.8912668 0.19901913
000250 9a 36 09 bf 4e 32 2a bf 1a ec 17 3f 9e d2 40 3f
       -0.5359894 -0.6648301 0.5934464 0.75321376
000260 72 5f d9 bf ec 04 9a bd a5 0b c3 3f dd 5a 4b 3e
       -1.6982253 -0.0752047 1.5237929 0.1985888
000270 2f 81 a3 bf db b8 8b 3d 99 44 c2 bf ec 19 a2 3e
       -1.2773799 0.06822368 -1.5177184 0.31660402
000280 79 f4 5b be 22 b8 82 3f d8 6b 9a be a8 77 5b 3e
       -0.21479978 1.0212443 -0.30160403 0.21432364
000290 b9 6a 7f 3f 26 53 21 bf 8d 81 59 bf f7 a8 41 3e
       0.9977222 -0.630175 -0.84963304 0.18912111
0002a0 3c e2 29 bf 16 c4 8b bd e2 c3 06 3f 7f 09 07 bf
       -0.6636083 -0.0682451 0.52642643 -0.52748865
0002b0 cb 94 c3 3e dd c6 fc 3d fd 07 6a 3f a3 cc f9 be
       0.38199458 0.12342618 0.9141844 -0.48788938
0002c0 8d 1e a7 bf 6f a5 b9 3d 11 4a 39 bf ec 25 b7 3d
       -1.3056198 0.09064757 -0.7237864 0.0894278
0002d0 ee eb 6d 3d a4 a7 4d 3f e7 ff e2 be c5 a5 9c bd
       0.05808633 0.80333924 -0.44335863 -0.076488055
0002e0 b1 30 44 3f b9 95 29 3e 0a 09 90 bf f4 3b 8e 3d
       0.766368 0.16561021 -1.1252759 0.06945029
0002f0 8c 5f 04 3d 86 77 e9 bc 68 e0 55 3f 1a 94 eb 3e
       0.032317683 -0.028499376 0.8354554 0.4601143
000300 78 8b cd bf 9e 43 08 be 1d 38 c8 3f 0c 9c 03 bf
       -1.6058187 -0.13307044 1.5642124 -0.51409984
000310 0d 73 25 bf 2c 8f 35 bd 17 3d d3 3e 54 0b f7 be
       -0.6462868 -0.044325992 0.41257545 -0.4825083
000320 9f 6a ac be d8 e0 1e be cf a9 32 3f 92 7d ed 3e
       -0.33675095 -0.15515459 0.6979036 0.46384865
000330 7b 04 08 3f 5e af e1 bc 4a 49 4d bf ae ba 46 be
       0.53131837 -0.027549442 -0.80189955 -0.1940715
000340 9f 50 ae 3e c8 50 51 3e b6 20 ec 3d c7 54 4d 3e
       0.34045884 0.20440972 0.115296766 0.20051871
000350 75 db 87 be 53 8c 9d be 64 c1 41 3f 16 38 ee be
       -0.2653462 -0.3077112 0.75685716 -0.46527165
000360 60 77 9a 3d e0 08 e1 3d 41 5a 20 3d a7 01 cb be
       0.075423 0.10988021 0.039148573 -0.39649698
000370 6a e4 88 3d 16 3f 9e 3c 53 dc 3b be e0 44 54 3d
       0.066841915 0.019317191 -0.18345766 0.051823497
000380 9f 1b 2c bd e8 f8 c2 bf 79 c2 2c c0 51 dd fd bd
       -0.04201853 -1.523221 -2.6993697 -0.123957284
000390 29 64 bc bd 7d 5c 06 be 20 23 3d bb 6f 3e ab 3c
       -0.091987915 -0.13121219 -0.0028860047 0.020903794
0003a0 6d df 2f be b5 a7 aa bd d7 ad 7b bd e8 b7 94 3d
       -0.17175074 -0.08332769 -0.061445083 0.0726164
0003b0 32 6e 47 bd 1a 55 1e bd f9 2c c9 3c 7c 0c b6 3d
       -0.048689075 -0.038655378 0.024557577 0.088891
0003c0 e3 32 dc bd b6 f8 92 3d 79 51 9a c0 14 2e 9a bd
       -0.10751893 0.07176344 -4.8224454 -0.0752832
0003d0 14 91 d0 3c 71 7f 8e bd ea 67 16 3e 66 03 24 c0
       0.025459804 -0.06957901 0.14688078 -2.5627074
0003e0 da 8c bb bc 12 73 aa bd 64 e3 26 3e e6 5d ab bf
       -0.022894312 -0.08322729 0.1629768 -1.338803
0003f0 7c f2 95 c0 c5 db 18 3d ff 5b db bc 76 7f 62 3d
       -4.68585 0.037318964 -0.026777266 0.055297337

mlp_extractor.policy_net.0.bias f4 [32]
000000 80 ac 8f bf 4b f3 7c be 90 c7 63 3e 6d 0c a9 be
       -1.1224518 -0.24702184 0.22244096 -0.33017293
000010 5e c9 22 3f 66 5a c2 bf 08 35 1a be d4 c4 5a 3f
       0.6358851 -1.5183837 -0.15059292 0.85456586
000020 0e 75 28 3e da 8f f1 be b5 90 0c 3e 28 d7 05 bf
       0.16450903 -0.47180063 0.13727076 -0.5228143
000030 c8 b6 e1 3e f8 4d 6d 3f 0a dd 72 3f bd e7 dc bd
       0.44084764 0.92697096 0.9486853 -0.10786388
000040 4b d3 f5 bc 1b 89 ef bf a6 76 f1 be 3e 8f 0a 3f
       -0.030007979 -1.8713716 -0.47160834 0.5412482
000050 6e 04 04 3f 54 ff 95 bf e1 ee 1b 3e 7d 3a 6f bf
       0.5156926 -1.1718545 0.15227844 -0.9344862
000060 9b 9b 2e 3f 20 9c 8f be 3c 39 4b 3e fe 26 57 3e
       0.68206185 -0.280488 0.19846052 0.21010968
000070 6f a6 b2 3d f8 74 49 bf d9 72 84 3f 14 17 24 bf
       0.08723151 -0.78694105 1.0347549 -0.64097714

mlp_extractor.policy_net.2.weight f4 [32, 32]
000000 7f 42 16 be e6 14 0c 3f e1 a9 c9 be c1 67 06 3f
       -0.14673804 0.5471939 -0.3938742 0.52502066
000010 85 22 bc 3e e1 9a 91 3e b2 f2 2e bf d6 d8 16 bd
       0.36745086 0.28438476 -0.68339074 -0.036827885
000020 b4 01 86 bf 29 f6 9d 38 aa 61 4b 3e 55 cc 9d be
       -1.046927 7.532194e-05 0.19861475 -0.30819955
000030 b5 34 e2 be d4 4d 2d 3e e6 06 38 3e 08 55 28 bf
       -0.44180837 0.1692422 0.17971382 -0.6575475
000040 a3 ea ca 3d 50 23 a3 3e 04 c4 cb bd c1 10 3c bf
       0.09908035 0.3186288 -0.099494964 -0.73463064
000050 15 87 10 3e 8b 6a 40 bf 5c f9 7a 3e 8d fe 8f 3f
       0.1411403 -0.7516257 0.24509186 1.1249558
000060 0b 13 37 3f ef 62 a7 be 78 25 cc be c0 21 05 3e
       0.7151343 -0.32692668 -0.39872336 0.13001156
000070 ff 9f 3e 3e 2a 3b a8 be f4 31 1a be a1 ac 61 be
       0.18615721 -0.3285764 -0.15058118 -0.22038509
000080 25 07 bf bf dd a9 af bf af 98 54 3f d5 41 8c 3f
       -1.4924055 -1.3723713 0.83045477 1.095759
000090 73 66 5b 3f 99 fd 74 c0 e0 17 88 bf 35 51 54 3e
       0.857032 -3.8279784 -1.0632286 0.20734103
0000a0 05 a6 d0 3e 44 21 42 be 55 1a e3 3e 2b 3b 70 3c
       0.40751663 -0.18958002 0.44356027 0.014662544
0000b0 b8 17 4c 3f 45 fd 4a 3f 11 03 05 c0 20 91 1b 3f
       0.7972369 0.7929271 -2.0783122 0.6076832
0000c0 b5 f6 da 3f 2e 89 8e be 98 fc d2 bf bc 7b dc bf
       1.7106539 -0.27839035 -1.6483335 -1.7225261
0000d0 8b 48 1d 3f 1c 5b 1f c0 a2 7a d8 3f db 41 f2 3f
       0.61438817 -2.4899359 1.6912425 1.8926347
0000e0 f9 2f 88 be e0 b5 14 c0 c8 84 02 bf 11 ab 77 bf
       -0.265991 -2.3236008 -0.5098386 -0.967454
0000f0 a2 85 1f 3f 8a 77 94 3f 36 8a e8 bf 0a 5b 25 bf
       0.6231328 1.159898 -1.8167179 -0.6459204
000100 c7 d2 9e bf 23 f3 fd 3e 9e 83 bf bf 08 94 e4 3f
       -1.2408074 0.4959956 -1.4962041 1.7857676
000110 f5 ea 9b be e1 98 d7 3e 91 38 a5 3e 35 83 a4 3e
       -0.30452695 0.42108825 0.3226972 0.32131353
000120 cd d1 ad 3d e7 31 61 be 6c d0 b4 bd b4 21 28 3f
       0.08487282 -0.21991692 -0.08828816 0.65676427
000130 0f 41 b3 be e3 50 8a bd 1c d5 a0 be f4 fd 88 3e
       -0.35010573 -0.06753709 -0.3141259 0.2675625
000140 44 f2 a1 3e 5e 37 0b bf d6 1e 71 be d1 dd 23 bf
       0.31630147 -0.5438136 -0.23546919 -0.6401034
000150 68 c9 ef 3e 08 c2 f9 be 3f 4a 68 bc 0a 41 a8 3f
       0.46833348 -0.48780847 -0.014177858 1.3144848
000160 ea 74 78 bf 2c 63 80 bf c5 97 c4 3e eb 80 88 3d
       -0.97053397 -1.0030265 0.3839704 0.06665214
000170 9a 96 31 bf 64 ac 0a 40 dd a2 62 bf f4 e1 a0 3e
       -0.69370425 2.166772 -0.8852976 0.3142239
000180 e3 b3 a8 3e 95 71 29 3f 01 5a b3 be 90 cf b1 3e
       0.32949743 0.6618894 -0.35029605 0.3472867
000190 bc d0 ea bd 2a ec f3 3e 80 29 94 3f ac 43 8d be
       -0.11465594 0.47641116 1.1575165 -0.27590692
0001a0 ea ef a8 bd c8 ab 67 3f 5e fb f4 be 22 d7 32 3f
       -0.08248885 0.9049649 -0.47848028 0.69859517
0001b0 0a 5e 98 bf 10 19 9a 3d 4b 62 2e bf 63 06 42 bf
       -1.1903698 0.075243115 -0.68118733 -0.75790995
0001c0 8b 07 2e 3c bb 52 52 bf aa 95 a9 bf 7d 31 63 be
       0.010621916 -0.82157487 -1.3248799 -0.22186847
0001d0 f5 56 3e 3d e8 61 19 bf 07 21 9e 3d 5c 4d a3 be
       0.046469647 -0.5991502 0.07721143 -0.31894958
0001e0 44 56 58 3f 6e 51 97 be 28 02 29 be 76 65 0b 3f
       0.8450663 -0.29554313 -0.16504729 0.5445169
0001f0 b0 35 a8 3f 20 10 c4 be 06 3c bb 3e b6 68 3f 3f
       1.3141384 -0.38293552 0.36569232 0.7476915
000200 5b f2 47 c0 6d be 3f be 31 bb 79 bf ed 0a 29 bf
       -3.1241672 -0.18724985 -0.97551256 -0.66032296
000210 34 f7 e7 3e 35 2a 0b c0 2d da f0 3d 84 f9 e1 be
       0.4530579 -2.174451 0.11760364 -0.44135678
000220 25 bf e7 3f 10 e0 30 bf 01 e0 07 40 da ff 90 bf
       1.8105208 -0.6909189 2.123047 -1.132808
000230 a5 1d fd be 3d e3 c5 3f af f7 6b c0 d7 d6 ea bf
       -0.4943668 1.5459973 -3.6869924 -1.8346814
000240 33 9f 21 c0 8e f2 38 bf ff ac 63 bf 47 04 34 bf
       -2.5253417 -0.7224511 -0.88935846 -0.70319027
000250 c1 c0 40 40 a0 65 dd bf 7b 93 11 c0 f0 9d dc 3f
       3.0117648 -1.7296638 -2.2746265 1.7235699
000260 9f fe 4e 3e 94 9d ed 3f 1c d2 8c be 11 d7 31 3e
       0.20214318 1.8563714 -0.2750405 0.17367198
000270 c2 c0 b8 3f 9d 39 65 40 00 d1 8e 3f c2 ec e9 3e
       1.4433825 3.5816414 1.1157532 0.45688444
000280 94 c2 f0 3e c3 16 35 3f b7 2a 22 3f 87 d2 84 3f
       0.4702345 0.70737857 0.6334643 1.0376748
000290 e2 fc 7e 3f 4e 25 e3 bf 2c 20 8c 3f ff 72 1c 40
       0.9960462 -1.774576 1.0947318 2.4445188
0002a0 b3 84 3a 3e c4 df fe bf a5 8c a8 bf 7c 0a 62 bf
       0.18214683 -1.9912038 -1.3167921 -0.8829725
0002b0 72 8b 07 40 22 b1 7e bf ea 4a 3a 3e c1 2e 49 bf
       2.117886 -0.99489033 0.1819264 -0.78586966
0002c0 39 77 6e 3f 01 79 a6 be 0e e9 3b 3f 96 a2 56 3f
       0.9315067 -0.32514194 0.7340249 0.83841836
0002d0 30 ab 7c be ff 57 e5 bf f2 a4 26 c0 98 e9 ab 3f
       -0.24674678 -1.7917479 -2.6038175 1.3430662
0002e0 4b 7e 83 be 82 5b ff 3f 95 dc d8 3f 09 81 4c 40
       -0.2568229 1.9949801 1.6942316 3.1953757
0002f0 cc 8b 15 3e 79 81 90 bf 4c 15 9a 3e b3 36 d2 3e
       0.1460411 -1.1289512 0.30094373 0.41057357
000300 22 e8 c6 bf 88 b1 40 3f 42 46 a7 3d 0b d0 ec 3e
       -1.5539591 0.7527089 0.081676975 0.46252474
000310 76 0c 32 40 cb 37 55 c0 f0 bc 01 40 73 37 59 3f
       2.7820106 -3.3315303 2.0271568 0.84850234
000320 14 45 ae be b9 0a 09 40 26 d1 a3 bf 80 ce d6 bf
       -0.34037077 2.1412795 -1.2798202 -1.6781769
000330 6a a6 5e bf 62 43 2d 3f b6 37 9e bf 3f 0b aa 3f
       -0.8697268 0.67680943 -1.2360752 1.3284682
000340 66 91 cf bf 83 65 9b bf d7 1b 8a 3f 65 bb af 40
       -1.6216247 -1.2140354 1.0789746 5.4916253
000350 8a 4c 8a 3f 4f 41 02 3f 14 74 e6 3f bd f1 ad 3f
       1.0804608 0.50880903 1.8004174 1.3589398
000360 02 ac e4 bf 61 1b 8e bf 99 e0 44 bf a0 89 d7 3e
       -1.7864993 -1.1102105 -0.7690521 0.42097187
000370 57 60 0c 3f 5e dd 28 3f c3 59 da 3d b1 e4 c8 be
       0.548345 0.6596278 0.10661652 -0.39236978
000380 7d bd a7 bf 22 58 dd bf dd 61 0d bf d3 9d 9e bf
       -1.3104702 -1.7292521 -0.5522745 -1.2391914
000390 4e 67 23 c0 40 96 1f bf 0c d5 d5 3e 88 98 85 3f
       -2.5531802 -0.6233864 0.41764104 1.0437174
0003a0 d2 3e 00 40 e9 ea 30 be a9 15 c2 3f 1e 65 c6 bf
       2.0038342 -0.17277111 1.516286 -1.5499609
0003b0 52 15 a1 c0 22 e2 33 40 93 24 88 be 02 9b b4 3f
       -5.0338526 2.810677 -0.26590404 1.4109805
0003c0 92 d7 9a bf 21 14 a2 bf 5d 4b ba 3e e1 b9 80 bf
       -1.2097037 -1.2662393 0.36385623 -1.0056726
0003d0 f5 50 d6 bf e1 55 49 c0 90 44 1c bf c3 c6 e9 3f
       -1.6743456 -3.1458666 -0.6104212 1.8263782
0003e0 79 f4 56 3f 4f a3 c9 3e 17 32 b3 bf 7d b0 66 3f
       0.83966786 0.39382407 -1.3999661 0.9011305
0003f0 6e 2f b9 be e5 d5 32 bf 32 4d 0f 40 3c 1f 8d 40
       -0.36168998 -0.6985763 2.2390866 4.410063

mlp_extractor.policy_net.2.bias f4 [32]
000000 ec a7 32 3f dc 3d b9 3f 29 fd e6 3e de 51 99 bf
       0.6978748 1.4472003 0.4511502 -1.1978109
000010 10 96 f5 be 0a df 10 bf 2a 5a 59 3d ce 60 23 40
       -0.4796605 -0.5659033 0.053064503 2.5527835
000020 fb 23 81 3e 0f 93 b8 be f3 f7 00 be 1a af 0b 3f
       0.25222763 -0.36049697 -0.12594585 0.5456406
000030 c1 6f 14 40 41 7e 59 3e f4 6c 2a 40 4e 40 82 be
       2.319321 0.21239568 2.6629 -0.25439686
000040 91 ef a1 3f 9e a9 ab 3e 45 bf d8 3e e8 46 49 bf
       1.2651235 0.33527845 0.42333427 -0.7862382
000050 3d b6 a2 be 2f 2f 18 be 46 0a 23 3f 9f b4 66 3f
       -0.31779662 -0.14861749 0.6368755 0.90119356
000060 f0 24 6e 3e bc e1 a0 3e 0f ca a9 be 67 b4 bc bf
       0.23256278 0.31422222 -0.3316197 -1.4742554
000070 dd 28 d1 bf 7e c2 d1 bf ff eb 5c 3f f2 e6 14 3f
       -1.6340595 -1.6387479 0.862976 0.58164895

mlp_extractor.value_net.0.weight f4 [32, 220]
000000 a9 37 f0 ba f7 49 4b 3d 20 4f 29 be 6d f2 a0 bc
       -0.0018327135 0.049631085 -0.1653409 -0.019646848
000010 ff 37 b0 3d 08 e8 80 3c a7 3c 1a 3e 55 a2 89 bc
       0.086044304 0.015735641 0.150622 -0.016801039
000020 dc f7 bc 3c 15 b2 85 3d 97 40 09 3d 4e 09 ff bd
       0.023067407 0.06528107 0.033508863 -0.124529466
000030 88 af f1 3d 07 93 a2 3d 7e 13 67 3c 6c 8d cb bd
       0.11801058 0.079381995 0.014103768 -0.099390835
000040 44 05 12 be 5b 80 b7 3d 08 f8 ad 3c f3 d6 cb 3c
       -0.14259821 0.08960029 0.021236435 0.02488277
000050 68 d8 67 bd e3 b4 99 bd 5e 8d b8 3d f1 1c 31 be
       -0.056602865 -0.075052045 0.09011339 -0.17296197
000060 c7 05 a5 3d a3 97 01 bc a7 d6 2e bd fe 11 2f 3d
       0.080577426 -0.007909688 -0.042685177 0.042741768
000070 0e 67 c7 3d 1d d8 29 3e 9b 63 99 bd de 04 15 bb
       0.09736453 0.16586347 -0.07489701 -0.0022738497
000080 09 24 4a 3c 7e 89 b7 3d 7d 52 1b 3b 16 8b e5 3d
       0.012337693 0.089617714 0.002370029 0.11208169
000090 42 10 12 3e 09 11 5a bd d2 cc d6 bb e6 e9 94 bc
       0.14264014 -0.053238902 -0.006555178 -0.018177938
0000a0 62 00 2d bd c1 24 92 bc 18 e1 ad bc fa ec 3d 3d
       -0.042236693 -0.017839791 -0.021225497 0.046368577
0000b0 22 55 c9 3d ec bd 08 3e cb c8 bc bd 21 c8 00 bd
       0.09830691 0.133537 -0.09217986 -0.031440858
0000c0 f7 8b cc bc f2 d9 1a 3e 4a 4b 05 bd 2f b9 15 be
       -0.024969084 0.15122202 -0.032542504 -0.14621423
0000d0 bc 9d 4d 3d ed 55 06 bd 58 ec ca 3c 05 b2 8c 3e
       0.050199255 -0.03279679 0.0247709 0.27479568
0000e0 da 07 fc 3d ac 08 6a bd 26 1b 7b be 19 59 c5 3c
       0.12306185 -0.057137176 -0.24522075 0.024090337
0000f0 41 8c c1 bc 76 14 b5 bd e7 11 60 3e 85 90 c9 3d
       -0.023626449 -0.08841793 0.21881829 0.09842018
000100 49 b7 1d be af fc fe bc 71 93 0d bd ee c9 09 be
       -0.15401949 -0.031126348 -0.03456444 -0.13455936
000110 d8 cd f3 bc 34 b6 51 3e ba d2 6e bd 3d 84 17 3d
       -0.02976124 0.20479661 -0.058306433 0.036991347
000120 b9 c9 b5 3d 81 11 dd 3b c5 33 8f 3c 7f f4 08 3e
       0.08876366 0.0067464714 0.01748074 0.13374518
000130 bb 05 f8 3c 7e c7 12 3d ca f2 0a be cb 3e 68 bd
       0.03027617 0.03583478 -0.13569179 -0.05670051
000140 6b a3 ec 3d 9f 64 1f bd 1b c8 33 be f9 8e fe bd
       0.11554607 -0.03891432 -0.17556803 -0.124296136
000150 74 a0 e6 bc 0f a4 e0 3d 52 fb cc 3c 15 15 ff 3d
       -0.028152682 0.10968792 0.025022183 0.12455193
000160 5a 9b 9e 3d e2 fd be bd 1c 46 1d 3b 37 c6 c4 3c
       0.07744475 -0.09325768 0.0023998087 0.024020297
000170 1c 6c ca bd e9 38 16 3e a2 6b f3 bc 1c 5b 24 3e
       -0.098839015 0.14670147 -0.02971441 0.1605038
000180 6b 64 c6 bb e8 70 9f bd 6f 20 4a bd cd de 22 be
       -0.006054451 -0.07785207 -0.049347337 -0.15905304
000190 e6 df 14 3e 38 cc 24 3c 16 64 64 bd d4 45 4c ba
       0.14538535 0.010058455 -0.055759512 -0.00077923876
0001a0 86 cc c7 bc 1d b2 a5 bd 43 a5 b5 3d 2b ec 05 bc
       -0.024389517 -0.08090613 0.08869412 -0.008173983
0001b0 d9 7c 70 bd d4 e9 46 bd f7 18 35 3e b3 84 47 bd
       -0.058712814 -0.04856284 0.17685305 -0.048710536
0001c0 fd 6b 0e be 72 52 ea bd 78 04 07 3c 16 9c 65 be
       -0.13908382 -0.114415064 0.0082408115 -0.22422823
0001d0 e9 4a ab bd 04 ee 8f bc 4d 4f a0 3d 27 70 03 3e
       -0.08363897 -0.01756955 0.078276254 0.12835751
0001e0 12 45 64 3e c7 1d bc 3d 0e 28 23 3e 54 ec 64 3d
       0.22291973 0.09185367 0.15933248 0.055889443
0001f0 b7 03 19 bd 13 86 29 bd 49 05 73 bd 74 93 0e bc
       -0.03735706 -0.04138763 -0.059331212 -0.008702148
000200 d4 f5 de bb 90 11 1a 3e bb 2e 97 3d 34 49 2b 3e
       -0.0068042073 0.15045762 0.0738196 0.16727144
000210 be c3 84 3d 4d 4f 63 bd b0 8f c2 3b 71 10 3d bd
       0.06482647 -0.05549555 0.005937539 -0.046158258
000220 16 2f fc 3d 45 1f 12 bb 21 20 a8 3c 18 e2 08 3e
       0.123136684 -0.002229647 0.020523133 0.13367498
000230 a7 38 ad 3d b0 5f 7e 3d e2 02 56 3a 3e ec 52 bd
       0.08458071 0.062102973 0.0008163882 -0.05149483
000240 47 c1 28 bd e7 e4 db bd 2c 3d d7 bd 90 29 8c bd
       -0.04119995 -0.10737019 -0.105097145 -0.06843865
000250 80 e0 f5 3d 46 1c 52 bc ee 7b e0 3d 15 5e 3f 3e
       0.120057106 -0.012824124 0.10961138 0.18688233
000260 77 31 ef bd 0a 3c 0d 3e e3 cd 58 bc fb 47 35 3e
       -0.116793565 0.13792434 -0.013232681 0.1770324
000270 28 f5 09 3e 74 bf c2 3b f4 92 aa 3b 87 7a 9f 3d
       0.13472426 0.005943233 0.0052055065 0.07787042
000280 a3 6c 39 bd 8e 63 51 bd d8 92 2c 3e 27 ff 0c 3e
       -0.04526962 -0.051120333 0.16852891 0.13769208
000290 e4 ad 0b 3e 8b 8a 9f bd 69 5f 65 3d d4 a2 95 bc
       0.13640553 -0.07790097 0.055999193 -0.018266119
0002a0 c2 a3 ff 39 2b ba 3a bd 79 de 93 3d a4 cd 86 bb
       0.000487594 -0.0455877 0.07220168 -0.0041138697
0002b0 e9 42 b2 3d 13 97 e2 bc f9 14 f8 3d 00 fa 22 3e
       0.08704168 -0.027659928 0.12113375 0.1591568
0002c0 a9 0d 2f bc 65 20 27 be b2 5f 3f 3d 4d 27 2a bd
       -0.010684409 -0.16320951 0.04672212 -0.041541386
0002d0 38 82 65 3c 07 d2 2c be af 77 9b 3d f8 e7 de bd
       0.014008097 -0.16876994 0.07591187 -0.10884088
0002e0 f6 06 16 be 7e c1 f3 bd c8 48 5f bd cf 8d cd 3d
       -0.14651093 -0.1190214 -0.05451277 0.100368135
0002f0 38 a7 b9 3b 9a bf 96 bc 65 c8 c2 bb 84 10 3d 3d
       0.005665686 -0.01840191 -0.005944299 0.04615833
000300 2a 87 d6 39 10 9f b1 3d d7 a8 1b 3e b8 a1 c9 bd
       0.00040917966 0.08672917 0.15201126 -0.098452985
000310 5c a5 c1 bd 31 2f 31 bd 83 a4 18 3d 22 5d 1e 3e
       -0.09455368 -0.043257896 0.037266266 0.15465215
000320 7d 57 c8 bd 0c 88 52 bc 95 c9 53 bd 35 95 7c 3d
       -0.09782312 -0.012849819 -0.051705915 0.061665732
000330 08 f3 f7 3d 5e 18 c6 bd 23 c0 00 bd c0 b5 39 3e
       0.121069014 -0.096726164 -0.031433236 0.18135738
000340 c9 dd c4 3d 31 89 8c bb 0d d3 a4 3d d3 b3 8d bc
       0.09612615 -0.0042888154 0.08048067 -0.017297661
000350 a6 1b 70 3b 75 0b d0 3d f5 c9 20 bd d8 2f c0 3d
       0.0036637574 0.10158435 -0.0392551 0.093841255
000360 ed 2a 39 3e 16 01 0a bd f4 d9 7f bb 6a 3f 16 3d
       0.18082781 -0.033692442 -0.0039039822 0.03668157
000370 54 61 f3 3a b0 9d b3 3b 1b de 5a 3e 54 fc 7a 3e
       0.0018568435 0.0054814443 0.21373789 0.24510318
000380 22 4c b0 3d 1f af 09 3e d1 02 73 3d 1c 18 2e bd
       0.08608271 0.1344571 0.059328858 -0.04250346
000390 dd 9e 9b bc 08 5e 88 3d 31 df 24 be 26 62 ec 3c
       -0.01899665 0.0665856 -0.16100766 0.028855395
0003a0 31 f6 ad 3c 81 fb 20 be 05 49 25 bc 89 db 29 be
       0.021235557 -0.15720941 -0.01008821 -0.16587652
0003b0 49 4f f4 3c 98 04 e8 3d af 0d 07 be a0 3b 2b bd
       0.029822962 0.11329001 -0.13188814 -0.04180491
0003c0 1a 32 b0 bc 2c 5e 33 bc 3f a3 f3 3c c4 10 9e bd
       -0.021508265 -0.010947745 0.029740928 -0.077180415
0003d0 4c fe c8 bd 2f 3b 10 be ca f2 07 3e dd e3 aa bc
       -0.09814128 -0.14085077 0.1327621 -0.020860607
0003e0 3f 9b f1 3d a7 73 22 bc f9 6d 5e ba 0f 47 49 3e
       0.11797189 -0.009915269 -0.0008485015 0.19656013
0003f0 77 6d d3 3d 39 5f f7 3c 65 6e 0c bd cd b5 80 3d
       0.10323613 0.030196773 -0.034284968 0.06284676

mlp_extractor.value_net.0.bias f4 [32]
000000 00 00 00 00 00 00 00 00 00 00 00 00 00 00 00 00
       0.0 0.0 0.0 0.0
000010 00 00 00 00 00 00 00 00 00 00 00 00 00 00 00 00
       0.0 0.0 0.0 0.0
000020 00 00 00 00 00 00 00 00 00 00 00 00 00 00 00 00
       0.0 0.0 0.0 0.0
000030 00 00 00 00 00 00 00 00 00 00 00 00 00 00 00 00
       0.0 0.0 0.0 0.0
000040 00 00 00 00 00 00 00 00 00 00 00 00 00 00 00 00
       0.0 0.0 0.0 0.0
000050 00 00 00 00 00 00 00 00 00 00 00 00 00 00 00 00
       0.0 0.0 0.0 0.0
000060 00 00 00 00 00 00 00 00 00 00 00 00 00 00 00 00
       0.0 0.0 0.0 0.0
000070 00 00 00 00 00 00 00 00 00 00 00 00 00 00 00 00
       0.0 0.0 0.0 0.0

mlp_extractor.value_net.2.weight f4 [32, 32]
000000 27 93 d9 bd 74 bb ff 3d d9 02 80 3e ab f0 02 3f
       -0.1062377 0.12486926 0.25002173 0.5114848
000010 8d 31 d5 3e 03 be a9 be 8d 9b 97 3d d4 90 ed 3d
       0.41639367 -0.3315278 0.07402716 0.115998894
000020 8d e2 28 be d8 9c 7e 3e 55 97 8c be b5 db 2c 3e
       -0.16492672 0.24864519 -0.27459207 0.16880687
000030 25 21 98 3e 02 0f 24 3e d5 b2 9f bd e3 1f 64 3c
       0.29712787 0.1602135 -0.077977814 0.013923618
000040 da f7 1c bd ed bf 9a 3d 5d 39 cd 3e f3 2a c3 bd
       -0.038322307 0.07556138 0.40082827 -0.09529676
000050 b4 31 99 3e 93 d9 68 bc 16 31 88 ba 1e 8a 5f 3e
       0.29920733 -0.01421203 -0.0010390605 0.21830031
000060 0e e8 85 be 8a 6f 68 3e 95 2b 06 bf 0c f0 e8 3e
       -0.26153606 0.22698799 -0.5241025 0.4549564
000070 20 e7 8d 3e 49 9a 10 3c 23 53 91 bd e9 b6 41 be
       0.27715397 0.008825847 -0.07095935 -0.18917431
000080 47 3e e9 3d b0 f9 c3 3e 27 e6 0d bf 08 ed 83 be
       0.113888316 0.38276434 -0.5542931 -0.25766778
000090 bb 56 a3 be 76 f1 bb 3e ec 8c 21 be ac d6 8f 3e
       -0.31902108 0.36707658 -0.15776414 0.2809347
0000a0 38 fd d0 bd de d9 f5 3d a6 cd 89 be a1 e2 2f be
       -0.10204548 0.120044455 -0.2691471 -0.17176296
0000b0 35 f3 b3 bc 98 42 87 bc 36 75 89 be 1c 3f 95 bd
       -0.021966556 -0.016511247 -0.26847237 -0.07287428
0000c0 d3 0a 92 3e df cd 20 3e e9 ef e3 3e 87 e6 75 3e
       0.28523883 0.15703534 0.44518974 0.2401372
0000d0 db 1c 9d 3e 33 b0 30 bd 98 cf 31 be 7d ba 26 3e
       0.30686077 -0.043136787 -0.17364347 0.16282077
0000e0 d5 6e d8 3d 61 d3 7f be 92 ec c2 be e7 a8 1e 3e
       0.105680145 -0.24982978 -0.38071114 0.15494119
0000f0 00 d4 7b be 07 de 69 be 5d 27 4f 3e b9 9a d6 3d
       -0.2459259 -0.22838603 0.2022986 0.1047873
000100 6f b9 a9 3e c8 95 7a 3e e6 be 58 3e 7c 71 6d 3e
       0.33149287 0.244712 0.21166572 0.23187822
000110 56 56 55 be 03 6b 52 3d 5f 8a f3 be d8 cf 46 be
       -0.20833716 0.051371586 -0.47566506 -0.19415224
000120 8e 3b 20 bd 8a 42 b5 be bf 2f 94 bd e1 3d ab 3e
       -0.039119296 -0.35402328 -0.07235669 0.33445647
000130 c8 68 bb 3e a9 32 83 be c5 fa 76 3e 29 3f 42 3e
       0.3660338 -0.25624588 0.24119098 0.18969406
000140 be 59 21 be ef f7 6a 3e 8a 66 f8 3e 59 f1 a3 3e
       -0.1575689 0.22946142 0.4851573 0.3202007
000150 49 eb 8c bd 02 b5 48 3d 12 0f 82 3e 5f 02 4a 3e
       -0.068808146 0.049000748 0.25402123 0.19727467
000160 7e 1c 9a 3e 53 ec fb bd c7 d3 e0 3e 0d 0f 79 3c
       0.30099863 -0.12300935 0.43911573 0.015201342
000170 dd 56 d9 3d 25 f8 3b 3c e5 5a 98 3c 77 f8 5e be
       0.10612271 0.0114727365 0.01859803 -0.2177447
000180 5a 07 a4 3d 54 da 6d 3d 00 f0 dd 3e 7b c2 7d be
       0.08009215 0.058069542 0.43347168 -0.2478122
000190 fe d1 93 bd 50 9d 17 3f bb 84 a2 3e 5a df a5 bc
       -0.07217787 0.59224415 0.3174189 -0.020248104
0001a0 72 dc 2f be 6f 58 f2 bd 84 d6 af bd 18 62 b0 3e
       -0.17173937 -0.118332736 -0.085858375 0.3444984
0001b0 81 d1 ec 3d ae 8d c8 3e 70 da 53 3e 43 65 d4 be
       0.11563397 0.39170593 0.20688796 -0.41483507
0001c0 1d 51 1b 3e 06 a6 13 be c5 f3 87 3d e4 a1 54 3e
       0.15167661 -0.14418802 0.06638292 0.20764881
0001d0 62 64 ac be a7 df bf be c0 42 83 3e 6b bd 54 be
       -0.33670336 -0.3747532 0.25636864 -0.20775382
0001e0 19 83 e0 bd da 84 58 3e b5 bf c6 bd 6f 47 b3 3e
       -0.10962505 0.21144429 -0.09704534 0.35015437
0001f0 14 de d0 bd 7a d6 b2 3d d5 46 76 3e dc 6c f1 3d
       -0.10198608 0.087323144 0.24050458 0.117883414
000200 6d 3e 56 bc 24 40 f3 bd e8 84 71 3c 92 fc 5e 3e
       -0.013076407 -0.11877468 0.01474116 0.21776035
000210 67 ce a0 3d d1 e5 7e 3e 42 de 78 be a8 43 33 be
       0.07851868 0.24892356 -0.24303535 -0.17506278
000220 8f 28 11 bf d5 7c 81 3d 8d 82 9e be 83 a2 03 3d
       -0.5670251 0.06322638 -0.30958977 0.032137405
000230 23 ad 01 bf f2 84 9a be 98 88 9e be 20 86 54 bd
       -0.5065481 -0.30179554 -0.30963588 -0.051885724
000240 d8 2a 04 bf 12 2b 0a be 00 50 99 bc 02 04 79 bd
       -0.51627874 -0.13492993 -0.018714905 -0.060794838
000250 13 97 6c be 85 21 5a be 23 87 d4 be 99 0c 78 be
       -0.23104505 -0.21301849 -0.4150935 -0.24223556
000260 d6 79 85 3e 4d 0e 6d 3e fb d1 69 3d 08 d2 5e 3e
       0.26069516 0.23149987 0.05708502 0.21759808
000270 e4 5d b9 bd b8 42 6b be d3 0c 8a bb 60 a9 7a be
       -0.09051111 -0.2297467 -0.0042129545 -0.24478674
000280 ba ea f1 bb 8b 67 2a be 5b 45 4b 3e ae c6 1b 3e
       -0.007382718 -0.16641061 0.19850676 0.15212509
000290 c3 8b 32 3e ae 2f a7 3e 53 ac 8b bd 8f ea 6b 3d
       0.17436127 0.32653564 -0.068199776 0.05759674
0002a0 c0 86 c5 bd 8f 10 d4 3e 49 cd ac 3e 2d c1 7c bd
       -0.09644842 0.41418883 0.3375037 -0.061707664
0002b0 7d ff 7b be fb a5 05 bf a3 91 29 3e 5b a0 7f 3d
       -0.2460918 -0.5220639 0.16559462 0.062408786
0002c0 e4 a1 a8 3e 85 08 a7 be f1 61 43 3e 57 3d 07 3c
       0.32936013 -0.32623687 0.1908033 0.008254371
0002d0 8f 34 9d 3d 15 eb be 3e eb 38 a2 3e 7a e7 91 3e
       0.076760404 0.37288728 0.3168405 0.28496915
0002e0 32 49 9f be 69 62 02 3e c0 30 c5 3d c9 12 0a 3d
       -0.3111053 0.12732853 0.09628439 0.03370932
0002f0 3b 5e 07 bf 47 26 76 3c 99 7a 6b 3e e8 30 85 be
       -0.5287816 0.0150237745 0.22995986 -0.26013875
000300 ad 59 c7 3e e4 2a 73 3d 90 95 67 3e 06 b0 0d bf
       0.38935605 0.059367076 0.22615647 -0.55346715
000310 cc cd df 3e 81 f6 93 3d 14 63 9a bd 44 9c 97 3e
       0.43711698 0.07224751 -0.07538429 0.2961141
000320 a1 c5 d2 3e 73 3d ba bc da 97 0a be f4 a6 e0 3e
       0.41166404 -0.02273438 -0.1353449 0.43877375
000330 15 44 1b be 2a 33 ac be 44 29 df 3c 33 49 c4 3e
       -0.1516269 -0.33632785 0.027241357 0.38337097
000340 c3 c2 29 be 83 d5 1a be 08 08 88 bd cb e5 58 bd
       -0.16578202 -0.15120511 -0.06642157 -0.052953523
000350 b4 64 7f bd 4b 2d aa 3d d2 92 df be e1 86 e8 3d
       -0.062351897 0.0830942 -0.43666703 0.11353851
000360 1b 29 08 3c 33 e3 ff bd fb b5 59 be 76 9a 10 3e
       0.008310582 -0.12494507 -0.21260826 0.14121422
000370 52 40 20 3e 1a b8 9a 3e ad 9a 66 3e 71 d9 f0 3d
       0.15649536 0.30218583 0.22519942 0.11760224
000380 b8 ae 87 3e e7 42 57 bd f9 d4 63 be 01 b7 15 be
       0.26500487 -0.052554037 -0.22249211 -0.14620592
000390 4f a3 48 3e 40 0d 91 3e ba 3d e7 be d2 0a 98 be
       0.19593547 0.2833042 -0.4516428 -0.29695755
0003a0 1a cb 4c bd 04 71 82 be 9b c7 b0 3d 54 35 b1 be
       -0.04999838 -0.2547685 0.08631822 -0.34611
0003b0 6a d8 8d 3d b3 61 0a 3e 0a 59 ed be 36 32 ad bd
       0.06926043 0.13513832 -0.46356994 -0.084568426
0003c0 6c 77 a4 be 10 a4 9f bd 4b dc b8 3d bd a0 c9 be
       -0.32122362 -0.07794964 0.090263925 -0.39380446
0003d0 48 cb 60 bd 28 35 93 3d c6 a8 e5 3e ff de 7d 3e
       -0.054881364 0.07187873 0.44855326 0.24792098
0003e0 4e ab ad be 96 c8 f3 3d c6 b6 31 bd 25 b0 30 3e
       -0.33919758 0.11903493 -0.043387197 0.17254694
0003f0 f5 d2 c0 3d 84 13 d3 3e a0 1d b7 bd 50 45 ad 3e
       0.09415237 0.41225827 -0.089411974 0.33841944

mlp_extractor.value_net.2.bias f4 [32]
000000 00 00 00 00 00 00 00 00 00 00 00 00 00 00 00 00
       0.0 0.0 0.0 0.0
000010 00 00 00 00 00 00 00 00 00 00 00 00 00 00 00 00
       0.0 0.0 0.0 0.0
000020 00 00 00 00 00 00 00 00 00 00 00 00 00 00 00 00
       0.0 0.0 0.0 0.0
000030 00 00 00 00 00 00 00 00 00 00 00 00 00 00 00 00
       0.0 0.0 0.0 0.0
000040 00 00 00 00 00 00 00 00 00 00 00 00 00 00 00 00
       0.0 0.0 0.0 0.0
000050 00 00 00 00 00 00 00 00 00 00 00 00 00 00 00 00
       0.0 0.0 0.0 0.0
000060 00 00 00 00 00 00 00 00 00 00 00 00 00 00 00 00
       0.0 0.0 0.0 0.0
000070 00 00 00 00 00 00 00 00 00 00 00 00 00 00 00 00
       0.0 0.0 0.0 0.0

action_net.weight f4 [64, 32]
000000 e2 92 33 bf d2 94 78 3f 16 b3 03 bf 6e 88 80 bf
       -0.70146 0.9710208 -0.5144514 -1.0041635
000010 7e f9 b4 bf bc 47 14 3f 4f dc 04 bf 8b 83 91 3e
       -1.4138639 0.5792196 -0.51898664 0.28420672
000020 e6 4a 1c 3f 17 1e f6 be 33 d9 01 bf 26 26 06 3f
       0.61051786 -0.48069832 -0.50722045 0.5240196
000030 47 6c 2a 3f 11 a5 77 3e 80 6a a4 bf 3b b5 22 be
       0.6657147 0.24184062 -1.2845001 -0.15889446
000040 91 cc 99 be 2a 8e c3 3e d5 39 c7 3e 57 c5 68 3f
       -0.30038884 0.381944 0.3891131 0.90926117
000050 92 62 85 bf 70 ca 85 bf 63 f5 9a 3f 9b f0 51 bf
       -1.0420706 -1.0452404 1.2106136 -0.8200776
000060 a0 37 56 be ef e4 82 be f1 e2 49 bf e4 ef 3a bf
       -0.20919657 -0.25565287 -0.7886191 -0.73022294
000070 f1 e4 26 bf 7d f0 96 bf df 6a 70 3f 52 6d af bd
       -0.65193087 -1.1792141 0.9391307 -0.08565773
000080 bb fc 1d 3e af ed ed 3e 90 a3 cb 3d 28 0e 94 be
       0.1542844 0.464704 0.099433064 -0.2891705
000090 af f1 77 3e f5 04 2d bf a2 41 ec 3e 06 5d dd be
       0.24213289 -0.6758569 0.46143824 -0.43235034
0000a0 10 8a be bf dd 34 36 bd bc 26 37 3d 0d be 87 3e
       -1.4885883 -0.044484008 0.044714674 0.26512185
0000b0 8f 3c 03 3f af 2a 56 bf ab a9 87 bf be 22 c3 bd
       0.5126428 -0.8365888 -1.0598654 -0.09528111
0000c0 0f 1f d7 3e ec 40 56 be a9 ce a7 be 83 c4 d7 bf
       0.42015883 -0.20923203 -0.32774857 -1.6856846
0000d0 9f 9a 3d bd c8 f9 8f bf ac 7a c8 3e e3 af 4b be
       -0.046290036 -1.1248102 0.3915609 -0.19891314
0000e0 b2 2e c3 bd ca 8c 16 bf 4a 5d 8e 3d cd 5d 25 bf
       -0.09530391 -0.5880858 0.06951387 -0.64596254
0000f0 2b 7a 8c bf b7 94 c1 be 2f 7f 18 3c e8 46 e9 be
       -1.0974783 -0.37808773 0.009307667 -0.4556191
000100 11 c3 21 be bf e5 70 be 4f c4 25 ba b6 95 eb bd
       -0.15797068 -0.23525141 -0.0006323503 -0.115031645
000110 b0 c9 da 3f 97 02 c0 be be d8 c5 be 07 07 de 3b
       1.70928 -0.37501976 -0.38641924 0.00677574
000120 4b f9 ab be 11 23 00 3f 22 67 22 3d d4 6a ae 3d
       -0.33588633 0.5005351 0.039649136 0.085164696
000130 30 6a dd 3e a1 5d 4a bf 32 55 d1 be 7f 6d 55 bf
       0.43245077 -0.79049116 -0.4088531 -0.833702
000140 0c e0 5c 3f ec f4 1b 3f be 98 99 be 12 1e 58 3f
       0.8627937 0.60920596 -0.29999346 0.84420884
000150 a6 e0 ad 3e fc 76 91 be 46 71 00 3e 6a c9 2c be
       0.33960456 -0.2841109 0.1254321 -0.16873708
000160 c8 9b 4f be 9b 75 02 3d e7 bc f2 3d ad 4a 3c bf
       -0.2027427 0.03185044 0.118524365 -0.73551446
000170 ff 37 e5 3e 9a 95 a7 3f ff 2a 7a 3e c1 2f 94 3e
       0.44769284 1.309253 0.24430464 0.28942683
000180 95 5b c4 bd cc 43 ac 3e 1e cb 0c be 12 21 14 bf
       -0.095877804 0.33645475 -0.13749358 -0.5786296
000190 e2 d5 b0 3f 16 c5 98 bd af 49 2d be 37 01 24 3f
       1.3815272 -0.07459466 -0.1692264 0.64064354
0001a0 7f 59 1c bf 19 7f 0d 3e f2 cb 33 be 5d af bc 3e
       -0.6107406 0.13818015 -0.17558268 0.36852542
0001b0 d4 60 16 3f 23 86 9a bf 78 cc a7 3f c7 5f 71 3e
       0.587415 -1.2072185 1.3109274 0.23571692
0001c0 7d c6 fd be 8a 23 ce 3e df da 64 be 3a 13 05 c0
       -0.49565497 0.4026149 -0.22349118 -2.0792985
0001d0 ff 53 30 be 18 98 e2 3e 90 b1 1a 3e fc b2 77 3d
       -0.17219542 0.44256663 0.15106797 0.060473427
0001e0 43 72 4b 3e 27 6d 16 be 44 84 87 be 82 97 22 bf
       0.19867806 -0.14690076 -0.26468098 -0.6351243
0001f0 86 25 3c bd b0 f8 a9 3f b1 ff a4 3e 05 bb fe 3e
       -0.045934223 1.3279018 0.32226327 0.4975206
000200 92 fc 57 bf d8 46 45 3f 52 72 fd 3e cf da e3 be
       -0.84369767 0.77061224 0.49501282 -0.44502875
000210 57 48 66 bf 6a 5e 27 bf d2 9d 21 3e a2 a0 2b 3f
       -0.8995413 -0.6537844 0.1578286 0.6704198
000220 e5 58 80 bd ed 7b 8f 3c 79 7e b7 3e b6 22 3f be
       -0.06266955 0.017515147 0.35838678 -0.18665585
000230 29 e5 dd 3f 0f a9 1e bf 16 d3 1f c0 84 bf 18 3d
       1.7335559 -0.6197671 -2.4972587 0.03729202
000240 82 5a 30 3e e9 73 bd be c7 de 5e 3e 7b 40 37 bf
       0.17222026 -0.37002495 0.2176467 -0.71582764
000250 0a 71 3a 3f 0a b1 30 be 39 85 52 3e e0 1e dd bc
       0.72828734 -0.17255035 0.20558633 -0.026992261
000260 a3 a2 de be 1b 3b a0 3e 79 5d 99 be 1d 66 9a bf
       -0.43483457 0.31295094 -0.29954126 -1.2062413
000270 8f 5a 98 bf 03 5f 5d be 59 68 43 3c 2d 52 3d be
       -1.1902636 -0.21618275 0.011926734 -0.18488379
000280 e1 d3 bb be 80 a3 3e bf 54 35 e2 3e 97 f7 7f bd
       -0.36685088 -0.7446823 0.4418131 -0.06249198
000290 dd bb bb bf 36 f0 f4 3e 86 92 8c bf 69 60 75 c0
       -1.4666706 0.47839516 -1.0982215 -3.8340094
0002a0 b3 35 1c 40 15 fe 88 bf 9c df 78 3f 32 78 04 bf
       2.4407775 -1.070254 0.972162 -0.51745903
0002b0 dc c0 90 bf 84 1f ab bf 42 c3 02 c0 41 d2 c5 bd
       -1.1308856 -1.3368993 -2.0431676 -0.096592434
0002c0 60 e8 20 c0 ca 1e 11 bf 12 12 94 3e 97 bf 1e c0
       -2.514183 -0.56687605 0.28920037 -2.4804437
0002d0 24 3b 36 3e dc 26 2b c0 44 ec 4b bf fa eb 1c bf
       0.17795998 -2.6742468 -0.7965739 -0.6129757
0002e0 cd 81 8a bf b1 8e 71 3f f9 cb 4b 3f 12 a2 b1 3f
       -1.0820862 0.94358355 0.7960811 1.3877585
0002f0 ac 36 85 3f 0a c6 8d 3f cb 83 71 bf 7e 22 99 3f
       1.040731 1.1076062 -0.94341725 1.1963651
000300 31 df bc be 70 df 3e bf 16 a8 e1 3e 30 16 7c bd
       -0.36889032 -0.7455969 0.44073552 -0.061544597
000310 5e 89 bb bf 2b 70 f4 3e e5 82 8c bf 31 4e 75 c0
       -1.4651296 0.47741827 -1.0977446 -3.8328974
000320 fe 31 1c 40 dc 04 89 bf dd 4c 79 3f 79 63 04 bf
       2.4405513 -1.0704608 0.9738291 -0.51714283
000330 01 83 90 bf eb 18 ab bf 3f 97 02 c0 77 e7 c9 bd
       -1.1289979 -1.3366979 -2.0404813 -0.098586015
000340 b0 da 20 c0 1d be 10 bf c6 ee 93 3e 78 ce 1e c0
       -2.5133476 -0.5654009 0.28893107 -2.4813519
000350 55 6a 38 3e 4c 03 2b c0 1b d8 4b bf 43 b9 1c bf
       0.18009312 -2.6720762 -0.79626626 -0.61220187
000360 65 31 8a bf 38 91 71 3f 99 d7 4b 3f 28 77 b1 3f
       -1.0796324 0.9436221 0.7962585 1.3864489
000370 34 4a 85 3f 33 e0 8d 3f 36 87 71 bf c2 30 99 3f
       1.041327 1.1084045 -0.9434694 1.1968005
000380 9a e2 bc be 69 b6 3e bf 82 9e e1 3e 80 7b 7c bd
       -0.36891633 -0.74497086 0.44066244 -0.061641216
000390 3e d1 bb bf a7 71 f4 3e bd 74 8c bf 96 4e 75 c0
       -1.4673231 0.4774296 -1.0973126 -3.8329215
0003a0 f6 34 1c 40 c4 07 89 bf 37 60 79 3f 63 46 04 bf
       2.4407325 -1.0705495 0.9741244 -0.516699
0003b0 77 cc 90 bf ff 34 ab bf f4 91 02 c0 7f 2e c9 bd
       -1.1312398 -1.3375548 -2.0401583 -0.098233216
0003c0 03 c9 20 c0 5b 93 10 bf 71 0c 93 3e db c5 1e c0
       -2.5122688 -0.56474847 0.2872043 -2.4808261
0003d0 b9 0a 37 3e 3e 1f 2b c0 04 f6 4b bf f6 99 1c bf
       0.17875184 -2.6737819 -0.79672265 -0.61172426
0003e0 20 54 8a bf c7 67 71 3f 5e c4 4b 3f b3 76 b1 3f
       -1.0806923 0.94298977 0.7959651 1.3864349
0003f0 9e 30 85 3f c5 a0 8d 3f 9b 6a 71 bf be 50 99 3f
       1.0405462 1.1064688 -0.9430329 1.1977766

action_net.bias f4 [64]
000000 f7 0f 76 be 16 10 09 3f 79 2c b2 be 8d 21 de bd
       -0.24029528 0.5354017 -0.34799555 -0.10846243
000010 c9 7c b4 3d 6e ed 85 c0 0f fa 85 c0 ea f7 85 c0
       0.088128634 -4.185233 -4.1867747 -4.186513
000020 9f f2 85 c0 d6 7a 39 3f 65 91 84 bc 43 19 0f 3e
       -4.185867 0.7245306 -0.01618261 0.1397448
000030 99 9c 7d 3d db ec 2a 3f 4e f6 85 c0 ef f2 85 c0
       0.06191692 0.6676766 -4.1863165 -4.185905
000040 5e 49 a1 3f 3d 35 bc 3e 0d bf c8 bc 21 d3 c4 be
       1.2600515 0.36759368 -0.024505163 -0.3844233
000050 5a 4c 19 be 81 f1 85 c0 13 f5 85 c0 40 e9 85 c0
       -0.14970532 -4.1857305 -4.1861663 -4.184723
000060 ba eb 85 c0 30 1f 8d be be 1f ab 3f e2 60 b3 3d
       -4.185025 -0.27562857 1.3369062 0.08758713
000070 6a 58 77 be ef 3d 85 be 38 fb 85 c0 fb f7 85 c0
       -0.24154821 -0.26023814 -4.1869164 -4.186521
000080 5f c4 ce 3e 3b 0a 6e bf a0 4e a2 3e 04 de b5 3d
       0.40384194 -0.9298436 0.3170061 0.08880237
000090 a9 d5 2c bf 07 f2 85 c0 f7 f3 85 c0 23 f9 85 c0
       -0.6751352 -4.1857944 -4.186031 -4.186662
0000a0 e8 f5 85 c0 e1 92 9b bd d8 b5 14 bf 6a ef 5b 3d
       -4.186268 -0.07596374 -0.5808997 0.05369512
0000b0 77 8a 85 be 2a c6 01 c0 9f f0 85 c0 e2 ed 85 c0
       -0.26082203 -2.02772 -4.1856227 -4.1852884
0000c0 9c 7c 20 bf 4a c0 87 be 87 16 a5 3d 28 e4 07 3e
       -0.6269014 -0.26513892 0.080609374 0.13270628
0000d0 dd ed 15 3f 5e 01 86 c0 23 f2 85 c0 7d f3 85 c0
       0.58566076 -4.187667 -4.1858077 -4.1859727
0000e0 be fc 85 c0 66 c4 c7 3e 0f 84 39 be ff bd fc bb
       -4.1871023 0.39017028 -0.18116783 -0.007713079
0000f0 57 e3 bb be 66 31 c1 bf a0 f8 85 c0 13 f9 85 c0
       -0.36696884 -1.50932 -4.1865997 -4.1866546

value_net.weight f4 [1, 32]
000000 60 55 70 be 62 e7 30 be 10 28 fc 3d 10 8f ba bd
       -0.23470068 -0.17275766 0.12312329 -0.09109318
000010 bc c4 11 be f3 1a 85 3c 9a 5a 2c 3d bb 4a f2 3d
       -0.14235204 0.016248202 0.042078592 0.1183066
000020 e7 ab a8 be cf 6f f2 3d 0d c4 98 3e 84 43 19 be
       -0.3294365 0.11837732 0.29837075 -0.14967161
000030 37 20 c0 bd 79 45 91 be b5 b1 37 bd 25 ec c1 3d
       -0.093811445 -0.28373316 -0.04484721 0.09468869
000040 52 45 74 3c e3 72 47 3c 57 9b 01 3e e5 7a b0 be
       0.014909105 0.012173387 0.12656914 -0.3446876
000050 e0 12 90 be 23 d9 62 be a3 3b c1 3d 81 a0 03 be
       -0.281394 -0.22153144 0.09435203 -0.12854196
000060 f5 dd 82 bd f5 2e 86 be 42 06 15 be a0 e3 7e 3b
       -0.06389991 -0.262077 -0.14553168 0.0038893
000070 5c 13 89 be 11 a0 2e be 7b 54 1f be da c4 eb 3d
       -0.26772583 -0.17053248 -0.1555957 0.11512156
